…
"Bagaimana bisa kau mengatakan hal seperti itu dengan mudah?" lanjut Aria, suaranya nyaris berbisik. "Kau... kau tidak tahu apa yang kau bicarakan."<turn|>

[INFO:swift] The SftArguments will be saved in: /home/ubuntu/fyh/megatron_output/gemma4_opt/p0_baseline_ds_prod/run_20260424_221109_full_epoch/swift_out/v0-20260425-061132/args.json
[INFO:swift] model: Gemma4ForConditionalGeneration(
  (model): Gemma4Model(
    (language_model): Gemma4TextModel(
      (embed_tokens): Gemma4TextScaledWordEmbedding(262144, 2816, padding_idx=0)
      (layers): ModuleList(
        (0-4): 5 x Gemma4TextDecoderLayer(
          (self_attn): Gemma4TextAttention(
            (q_proj): Linear(in_features=2816, out_features=4096, bias=False)
            (q_norm): Gemma4RMSNorm()
            (k_norm): Gemma4RMSNorm()
            (v_norm): Gemma4RMSNorm()
            (k_proj): Linear(in_features=2816, out_features=2048, bias=False)
            (v_proj): Linear(in_features=2816, out_features=2048, bias=False)
            (o_proj): Linear(in_features=4096, out_features=2816, bias=False)
          )
          (mlp): Gemma4TextMLP(
            (gate_proj): Linear(in_features=2816, out_features=2112, bias=False)
            (up_proj): Linear(in_features=2816, out_features=2112, bias=False)
            (down_proj): Linear(in_features=2112, out_features=2816, bias=False)
            (act_fn): GELUTanh()
          )
          (input_layernorm): Gemma4RMSNorm()
          (post_attention_layernorm): Gemma4RMSNorm()
          (pre_feedforward_layernorm): Gemma4RMSNorm()
          (post_feedforward_layernorm): Gemma4RMSNorm()
          (router): Gemma4TextRouter(
            (norm): Gemma4RMSNorm()
            (proj): Linear(in_features=2816, out_features=128, bias=False)
          )
          (experts): Gemma4TextExperts(
            (act_fn): GELUTanh()
          )
          (post_feedforward_layernorm_1): Gemma4RMSNorm()
          (post_feedforward_layernorm_2): Gemma4RMSNorm()
          (pre_feedforward_layernorm_2): Gemma4RMSNorm()
        )
        (5): Gemma4TextDecoderLayer(
          (self_attn): Gemma4TextAttention(
            (q_proj): Linear(in_features=2816, out_features=8192, bias=False)
            (q_norm): Gemma4RMSNorm()
            (k_norm): Gemma4RMSNorm()
            (v_norm): Gemma4RMSNorm()
            (k_proj): Linear(in_features=2816, out_features=1024, bias=False)
            (o_proj): Linear(in_features=8192, out_features=2816, bias=False)
          )
          (mlp): Gemma4TextMLP(
            (gate_proj): Linear(in_features=2816, out_features=2112, bias=False)
            (up_proj): Linear(in_features=2816, out_features=2112, bias=False)
            (down_proj): Linear(in_features=2112, out_features=2816, bias=False)
            (act_fn): GELUTanh()
          )
          (input_layernorm): Gemma4RMSNorm()
          (post_attention_layernorm): Gemma4RMSNorm()
          (pre_feedforward_layernorm): Gemma4RMSNorm()
          (post_feedforward_layernorm): Gemma4RMSNorm()
          (router): Gemma4TextRouter(
            (norm): Gemma4RMSNorm()
            (proj): Linear(in_features=2816, out_features=128, bias=False)
          )
          (experts): Gemma4TextExperts(
            (act_fn): GELUTanh()
          )
          (post_feedforward_layernorm_1): Gemma4RMSNorm()
          (post_feedforward_layernorm_2): Gemma4RMSNorm()
          (pre_feedforward_layernorm_2): Gemma4RMSNorm()
        )
        (6-10): 5 x Gemma4TextDecoderLayer(
          (self_attn): Gemma4TextAttention(
            (q_proj): Linear(in_features=2816, out_features=4096, bias=False)
            (q_norm): Gemma4RMSNorm()
            (k_norm): Gemma4RMSNorm()
            (v_norm): Gemma4RMSNorm()
            (k_proj): Linear(in_features=2816, out_features=2048, bias=False)
            (v_proj): Linear(in_features=2816, out_features=2048, bias=False)
            (o_proj): Linear(in_features=4096, out_features=2816, bias=False)
          )
          (mlp): Gemma4TextMLP(
            (gate_proj): Linear(in_features=2816, out_features=2112, bias=False)
            (up_proj): Linear(in_features=2816, out_features=2112, bias=False)
            (down_proj): Linear(in_features=2112, out_features=2816, bias=False)
            (act_fn): GELUTanh()
          )
          (input_layernorm): Gemma4RMSNorm()
          (post_attention_layernorm): Gemma4RMSNorm()
          (pre_feedforward_layernorm): Gemma4RMSNorm()
          (post_feedforward_layernorm): Gemma4RMSNorm()
          (router): Gemma4TextRouter(
            (norm): Gemma4RMSNorm()
            (proj): Linear(in_features=2816, out_features=128, bias=False)
          )
          (experts): Gemma4TextExperts(
            (act_fn): GELUTanh()
          )
          (post_feedforward_layernorm_1): Gemma4RMSNorm()
          (post_feedforward_layernorm_2): Gemma4RMSNorm()
          (pre_feedforward_layernorm_2): Gemma4RMSNorm()
        )
        (11): Gemma4TextDecoderLayer(
          (self_attn): Gemma4TextAttention(
            (q_proj): Linear(in_features=2816, out_features=8192, bias=False)
            (q_norm): Gemma4RMSNorm()
            (k_norm): Gemma4RMSNorm()
            (v_norm): Gemma4RMSNorm()
            (k_proj): Linear(in_features=2816, out_features=1024, bias=False)
            (o_proj): Linear(in_features=8192, out_features=2816, bias=False)
          )
          (mlp): Gemma4TextMLP(
            (gate_proj): Linear(in_features=2816, out_features=2112, bias=False)
            (up_proj): Linear(in_features=2816, out_features=2112, bias=False)
            (down_proj): Linear(in_features=2112, out_features=2816, bias=False)
            (act_fn): GELUTanh()
          )
          (input_layernorm): Gemma4RMSNorm()
          (post_attention_layernorm): Gemma4RMSNorm()
          (pre_feedforward_layernorm): Gemma4RMSNorm()
          (post_feedforward_layernorm): Gemma4RMSNorm()
          (router): Gemma4TextRouter(
            (norm): Gemma4RMSNorm()
            (proj): Linear(in_features=2816, out_features=128, bias=False)
          )
          (experts): Gemma4TextExperts(
            (act_fn): GELUTanh()
          )
          (post_feedforward_layernorm_1): Gemma4RMSNorm()
          (post_feedforward_layernorm_2): Gemma4RMSNorm()
          (pre_feedforward_layernorm_2): Gemma4RMSNorm()
        )
        (12-16): 5 x Gemma4TextDecoderLayer(
          (self_attn): Gemma4TextAttention(
            (q_proj): Linear(in_features=2816, out_features=4096, bias=False)
            (q_norm): Gemma4RMSNorm()
            (k_norm): Gemma4RMSNorm()
            (v_norm): Gemma4RMSNorm()
            (k_proj): Linear(in_features=2816, out_features=2048, bias=False)
            (v_proj): Linear(in_features=2816, out_features=2048, bias=False)
            (o_proj): Linear(in_features=4096, out_features=2816, bias=False)
          )
          (mlp): Gemma4TextMLP(
            (gate_proj): Linear(in_features=2816, out_features=2112, bias=False)
            (up_proj): Linear(in_features=2816, out_features=2112, bias=False)
            (down_proj): Linear(in_features=2112, out_features=2816, bias=False)
            (act_fn): GELUTanh()
          )
          (input_layernorm): Gemma4RMSNorm()
          (post_attention_layernorm): Gemma4RMSNorm()
          (pre_feedforward_layernorm): Gemma4RMSNorm()
          (post_feedforward_layernorm): Gemma4RMSNorm()
          (router): Gemma4TextRouter(
            (norm): Gemma4RMSNorm()
            (proj): Linear(in_features=2816, out_features=128, bias=False)
          )
          (experts): Gemma4TextExperts(
            (act_fn): GELUTanh()
          )
          (post_feedforward_layernorm_1): Gemma4RMSNorm()
          (post_feedforward_layernorm_2): Gemma4RMSNorm()
          (pre_feedforward_layernorm_2): Gemma4RMSNorm()
        )
        (17): Gemma4TextDecoderLayer(
          (self_attn): Gemma4TextAttention(
            (q_proj): Linear(in_features=2816, out_features=8192, bias=False)
            (q_norm): Gemma4RMSNorm()
            (k_norm): Gemma4RMSNorm()
            (v_norm): Gemma4RMSNorm()
            (k_proj): Linear(in_features=2816, out_features=1024, bias=False)
            (o_proj): Linear(in_features=8192, out_features=2816, bias=False)
          )
          (mlp): Gemma4TextMLP(
            (gate_proj): Linear(in_features=2816, out_features=2112, bias=False)
            (up_proj): Linear(in_features=2816, out_features=2112, bias=False)
            (down_proj): Linear(in_features=2112, out_features=2816, bias=False)
            (act_fn): GELUTanh()
          )
          (input_layernorm): Gemma4RMSNorm()
          (post_attention_layernorm): Gemma4RMSNorm()
          (pre_feedforward_layernorm): Gemma4RMSNorm()
          (post_feedforward_layernorm): Gemma4RMSNorm()
          (router): Gemma4TextRouter(
            (norm): Gemma4RMSNorm()
            (proj): Linear(in_features=2816, out_features=128, bias=False)
          )
          (experts): Gemma4TextExperts(
            (act_fn): GELUTanh()
          )
          (post_feedforward_layernorm_1): Gemma4RMSNorm()
          (post_feedforward_layernorm_2): Gemma4RMSNorm()
          (pre_feedforward_layernorm_2): Gemma4RMSNorm()
        )
        (18-22): 5 x Gemma4TextDecoderLayer(
          (self_attn): Gemma4TextAttention(
            (q_proj): Linear(in_features=2816, out_features=4096, bias=False)
            (q_norm): Gemma4RMSNorm()
            (k_norm): Gemma4RMSNorm()
            (v_norm): Gemma4RMSNorm()
            (k_proj): Linear(in_features=2816, out_features=2048, bias=False)
            (v_proj): Linear(in_features=2816, out_features=2048, bias=False)
            (o_proj): Linear(in_features=4096, out_features=2816, bias=False)
          )
          (mlp): Gemma4TextMLP(
            (gate_proj): Linear(in_features=2816, out_features=2112, bias=False)
            (up_proj): Linear(in_features=2816, out_features=2112, bias=False)
            (down_proj): Linear(in_features=2112, out_features=2816, bias=False)
            (act_fn): GELUTanh()
          )
          (input_layernorm): Gemma4RMSNorm()
          (post_attention_layernorm): Gemma4RMSNorm()
          (pre_feedforward_layernorm): Gemma4RMSNorm()
          (post_feedforward_layernorm): Gemma4RMSNorm()
          (router): Gemma4TextRouter(
            (norm): Gemma4RMSNorm()
            (proj): Linear(in_features=2816, out_features=128, bias=False)
          )
          (experts): Gemma4TextExperts(
            (act_fn): GELUTanh()
          )
          (post_feedforward_layernorm_1): Gemma4RMSNorm()
          (post_feedforward_layernorm_2): Gemma4RMSNorm()
          (pre_feedforward_layernorm_2): Gemma4RMSNorm()
        )
        (23): Gemma4TextDecoderLayer(
          (self_attn): Gemma4TextAttention(
            (q_proj): Linear(in_features=2816, out_features=8192, bias=False)
            (q_norm): Gemma4RMSNorm()
            (k_norm): Gemma4RMSNorm()
            (v_norm): Gemma4RMSNorm()
            (k_proj): Linear(in_features=2816, out_features=1024, bias=False)
            (o_proj): Linear(in_features=8192, out_features=2816, bias=False)
          )
          (mlp): Gemma4TextMLP(
            (gate_proj): Linear(in_features=2816, out_features=2112, bias=False)
            (up_proj): Linear(in_features=2816, out_features=2112, bias=False)
            (down_proj): Linear(in_features=2112, out_features=2816, bias=False)
            (act_fn): GELUTanh()
          )
          (input_layernorm): Gemma4RMSNorm()
          (post_attention_layernorm): Gemma4RMSNorm()
          (pre_feedforward_layernorm): Gemma4RMSNorm()
          (post_feedforward_layernorm): Gemma4RMSNorm()
          (router): Gemma4TextRouter(
            (norm): Gemma4RMSNorm()
            (proj): Linear(in_features=2816, out_features=128, bias=False)
          )
          (experts): Gemma4TextExperts(
            (act_fn): GELUTanh()
          )
          (post_feedforward_layernorm_1): Gemma4RMSNorm()
          (post_feedforward_layernorm_2): Gemma4RMSNorm()
          (pre_feedforward_layernorm_2): Gemma4RMSNorm()
        )
        (24-28): 5 x Gemma4TextDecoderLayer(
          (self_attn): Gemma4TextAttention(
            (q_proj): Linear(in_features=2816, out_features=4096, bias=False)
            (q_norm): Gemma4RMSNorm()
            (k_norm): Gemma4RMSNorm()
            (v_norm): Gemma4RMSNorm()
            (k_proj): Linear(in_features=2816, out_features=2048, bias=False)
            (v_proj): Linear(in_features=2816, out_features=2048, bias=False)
            (o_proj): Linear(in_features=4096, out_features=2816, bias=False)
          )
          (mlp): Gemma4TextMLP(
            (gate_proj): Linear(in_features=2816, out_features=2112, bias=False)
            (up_proj): Linear(in_features=2816, out_features=2112, bias=False)
            (down_proj): Linear(in_features=2112, out_features=2816, bias=False)
            (act_fn): GELUTanh()
          )
          (input_layernorm): Gemma4RMSNorm()
          (post_attention_layernorm): Gemma4RMSNorm()
          (pre_feedforward_layernorm): Gemma4RMSNorm()
          (post_feedforward_layernorm): Gemma4RMSNorm()
          (router): Gemma4TextRouter(
            (norm): Gemma4RMSNorm()
            (proj): Linear(in_features=2816, out_features=128, bias=False)
          )
          (experts): Gemma4TextExperts(
            (act_fn): GELUTanh()
          )
          (post_feedforward_layernorm_1): Gemma4RMSNorm()
          (post_feedforward_layernorm_2): Gemma4RMSNorm()
          (pre_feedforward_layernorm_2): Gemma4RMSNorm()
        )
        (29): Gemma4TextDecoderLayer(
          (self_attn): Gemma4TextAttention(
            (q_proj): Linear(in_features=2816, out_features=8192, bias=False)
            (q_norm): Gemma4RMSNorm()
            (k_norm): Gemma4RMSNorm()
            (v_norm): Gemma4RMSNorm()
            (k_proj): Linear(in_features=2816, out_features=1024, bias=False)
            (o_proj): Linear(in_features=8192, out_features=2816, bias=False)
          )
          (mlp): Gemma4TextMLP(
            (gate_proj): Linear(in_features=2816, out_features=2112, bias=False)
            (up_proj): Linear(in_features=2816, out_features=2112, bias=False)
            (down_proj): Linear(in_features=2112, out_features=2816, bias=False)
            (act_fn): GELUTanh()
          )
          (input_layernorm): Gemma4RMSNorm()
          (post_attention_layernorm): Gemma4RMSNorm()
          (pre_feedforward_layernorm): Gemma4RMSNorm()
          (post_feedforward_layernorm): Gemma4RMSNorm()
          (router): Gemma4TextRouter(
            (norm): Gemma4RMSNorm()
            (proj): Linear(in_features=2816, out_features=128, bias=False)
          )
          (experts): Gemma4TextExperts(
            (act_fn): GELUTanh()
          )
          (post_feedforward_layernorm_1): Gemma4RMSNorm()
          (post_feedforward_layernorm_2): Gemma4RMSNorm()
          (pre_feedforward_layernorm_2): Gemma4RMSNorm()
        )
      )
      (norm): Gemma4RMSNorm()
      (rotary_emb): Gemma4TextRotaryEmbedding()
    )
    (vision_tower): Gemma4VisionModel(
      (patch_embedder): Gemma4VisionPatchEmbedder(
        (input_proj): Linear(in_features=768, out_features=1152, bias=False)
      )
      (encoder): Gemma4VisionEncoder(
        (rotary_emb): Gemma4VisionRotaryEmbedding()
        (layers): ModuleList(
          (0-26): 27 x Gemma4VisionEncoderLayer(
            (self_attn): Gemma4VisionAttention(
              (q_proj): Gemma4ClippableLinear(
                (linear): Linear(in_features=1152, out_features=1152, bias=False)
              )
              (k_proj): Gemma4ClippableLinear(
                (linear): Linear(in_features=1152, out_features=1152, bias=False)
              )
              (v_proj): Gemma4ClippableLinear(
                (linear): Linear(in_features=1152, out_features=1152, bias=False)
              )
              (o_proj): Gemma4ClippableLinear(
                (linear): Linear(in_features=1152, out_features=1152, bias=False)
              )
              (q_norm): Gemma4RMSNorm()
              (k_norm): Gemma4RMSNorm()
              (v_norm): Gemma4RMSNorm()
            )
            (mlp): Gemma4VisionMLP(
              (gate_proj): Gemma4ClippableLinear(
                (linear): Linear(in_features=1152, out_features=4304, bias=False)
              )
              (up_proj): Gemma4ClippableLinear(
                (linear): Linear(in_features=1152, out_features=4304, bias=False)
              )
              (down_proj): Gemma4ClippableLinear(
                (linear): Linear(in_features=4304, out_features=1152, bias=False)
              )
              (act_fn): GELUTanh()
            )
            (input_layernorm): Gemma4RMSNorm()
            (post_attention_layernorm): Gemma4RMSNorm()
            (pre_feedforward_layernorm): Gemma4RMSNorm()
            (post_feedforward_layernorm): Gemma4RMSNorm()
          )
        )
      )
      (pooler): Gemma4VisionPooler()
    )
    (embed_vision): Gemma4MultimodalEmbedder(
      (embedding_projection): Linear(in_features=1152, out_features=2816, bias=False)
      (embedding_pre_projection_norm): Gemma4RMSNorm()
    )
  )
  (lm_head): Linear(in_features=2816, out_features=262144, bias=False)
)
[INFO:swift] model_parameter_info: Gemma4ForConditionalGeneration: 25805.9339M Params (25233.1418M Trainable [97.7804%]), 0.0031M Buffers.
[INFO:swift] use_reentrant: True
[INFO:swift] The logging file will be saved in: /home/ubuntu/fyh/megatron_output/gemma4_opt/p0_baseline_ds_prod/run_20260424_221109_full_epoch/swift_out/v0-20260425-061132/logging.jsonl
…
